Model/model.pth (torch_old, 428645 bytes, 14 tensors)

layer1.0.weight f4 [64, 1, 9]
-0.19758622 -0.2677206 -0.114987984 -0.26410457 -0.02739978 -0.17337476 -0.10133343 0.059122294
-0.20581345 0.20396574 -0.1499348 0.27704793 -0.20660688 0.1377032 -0.020403352 -0.013295529
0.06387793 -0.16563453 -0.09441376 -0.24403735 0.32882097 -0.21306816 0.07282676 0.19164458
0.018862963 0.2635717 0.40867457 -0.049752343 0.3288719 0.20302105 0.08244105 -0.22816022
-0.1978374 0.029208468 0.28615853 0.23209363 0.21449986 0.20825168 0.08889678 0.35980135
-0.12248827 0.23183677 -0.119577415 0.09847455 0.3927583 -0.14890526 -0.3040657 0.05855065
0.02726144 -0.11201403 0.025954355 -0.059563547 -0.05715602 0.44449604 -0.10228588 -0.15173025
-0.1805816 -0.27553216 -0.21539825 -0.16749619 -0.1913923 -0.015850918 -0.070266634 0.111975156
-0.21734408 0.12594461 0.16723661 -0.24965383 0.111655496 -0.056135155 -0.107144535 0.4493319
-0.22289626 0.017769573 0.1932307 0.2636326 -0.013295661 -0.30045754 -0.12058018 -0.09008234
0.36093953 -0.2048899 -0.31294882 -0.066520624 0.22273505 0.24160184 0.06788247 -0.26014045
-0.27488267 -0.05103304 0.108464845 -0.16548774 0.05057807 -0.21324421 -0.1366443 0.18924645
0.17318712 0.51086384 -0.24955428 0.4676982 -0.06429625 0.08153188 0.11982063 -0.11807295
-0.062163495 -0.11849487 -0.25794512 -0.4170457 -0.36447266 -0.09147408 -0.18264027 0.13329619
0.16747423 -0.20299596 -0.18222582 0.124559276 0.4548938 -0.21666755 -0.09582992 -0.38989305
-0.11175147 -0.13463387 -0.17991894 -0.2444963 -0.0067297122 -0.29483497 0.39223757 -0.0043704705
0.063409574 -0.35848325 -0.12119903 0.20728491 0.32874373 0.26428768 0.08319046 0.25560123
-0.41099623 0.048299436 -0.27962142 0.06622396 0.04299525 0.28591707 -0.107229084 -0.06198506
0.029680673 -0.032192085 -0.12185923 0.08278632 -0.17710324 0.15251023 0.02255868 -0.31145772
0.3484971 -0.36393863 0.3684016 0.068231575 -0.32383627 0.19468379 0.07782381 -0.43048814
0.17121325 0.11051293 -0.08607952 0.026849281 -0.25340912 -0.13132821 -0.009555797 -0.47468126
-0.23245418 -0.013597808 -0.104040675 0.27490085 0.037842244 -0.0044568297 0.075654134 -0.15850426
-0.015676655 0.17398697 -0.18072352 0.5561452 0.10527245 0.12488409 0.0642952 0.0052735116
-0.28454277 -0.31963173 -0.44371936 -0.22229393 -0.23119365 -0.34101525 0.10181163 -0.046920463
-0.14364222 0.4391407 -0.23067433 -0.014031826 -0.037785187 -0.23330244 -0.33806735 0.10758344
-0.31133938 0.27648145 -0.08387174 0.15228826 -0.06614696 -0.2318059 -0.30610704 -0.3404788
-0.13594724 -0.13494425 -0.30046627 0.2966336 -0.44928312 0.19430482 -0.24365734 -0.21329711
-0.35229743 -0.29481438 0.11231047 0.24962774 -0.079324715 -0.05026883 -0.13218103 0.37056816
-0.35779554 -0.13943051 0.0203567 -0.1284864 -0.068408296 0.15932713 0.2065961 0.09841101
0.024804447 -0.3669507 0.099159434 -0.116455905 0.06300113 0.024764756 -0.1812912 0.32346824
-0.33010343 0.28443867 -0.19536155 -0.24974702 0.30051094 0.025844714 -0.116066545 0.063085526
-0.069166586 -0.17087828 0.40568113 -0.27341345 0.108988374 0.008292377 0.26839378 0.100197375
00000000: 0b54 4abe ad12 89be d27e ebbd b738 87be
00000010: 8175 e0bc 2789 31be e787 cfbd 382a 723d
00000020: c3c0 52be 65dc 503e 8288 19be 3ad9 8d3e
00000030: c190 53be 1102 0d3e ee24 a7bc 7ed5 59bc
00000040: 6fd2 823d 199c 29be 005c c1bd ede4 79be
00000050: 395b a83e 8a2e 5abe 3226 953d 7a3e 443e
00000060: 8086 9a3c dff2 863e cb3d d13e 1dc9 4bbd
00000070: e661 a83e c0e4 4f3e dad6 a83d d5a2 69be
00000080: e395 4abe 9946 ef3c 5f83 923e f4a9 6d3e
00000090: daa5 5b3e ee3f 553e 840f b63d e237 b83e
000000a0: 21db fabd 9e66 6d3e 01e5 f4bd 06ad c93d
000000b0: 9e17 c93e 9f7a 18be 80ae 9bbe ced2 6f3d
000000c0: 6253 df3c 9d67 e5bd 3a9e d43c e8f8 73bd
000000d0: 6e1c 6abd fc94 e33e 427b d1bd 2d5f 1bbe
000000e0: 62ea 38be 8d12 8dbe 5c91 5cbe 1f84 2bbe
000000f0: 58fc 43be c9d9 81bc f4e7 8fbd 3b53 e53d
00000100: 728f 5ebe a0f7 003e 1340 2b3e 41a5 7fbe
00000110: a3ab e43d faed 65bd 986e dbbd d50e e63e
00000120: eb3e 64be 7f91 913c 45de 453e dafa 863e
00000130: 0bd6 59bc 92d5 99be bef2 f6bd 177d b8bd
00000140: 11cd b83e a8ce 51be d43a a0be f73b 88bd
00000150: a814 643e 7966 773e f705 8b3d 2131 85be
00000160: 6cbd 8cbe 0508 51bd d122 de3d 9e75 29be
00000170: f32a 4f3d b15c 5abe 7cec 0bbe d2c9 413e
00000180: f757 313e f9c7 023f 288b 7fbe 2376 ef3e
00000190: c1ad 83bd 30fa a63d 8564 f53d 3bd0 f1bd
000001a0: 269f 7ebd 70ad f2bd 6211 84be 0487 d5be
000001b0: 299c babe c356 bbbd 0d06 3bbe cc7e 083e
000001c0: 5d7e 2b3e 2cde 4fbe 6899 3abe ef18 ff3d
000001d0: d7e7 e83e 19de 5dbe 7a42 c4bd 10a0 c7be
000001e0: f4dd e4bd 76dd 09be ac3c 38be 3d5d 7abe
000001f0: eb84 dcbb 9cf4 96be 5dd3 c83e 2a36 8fbb
00000200: e1dc 813d 1e8b b7be 3237 f8bd 7f42 543e
00000210: 1951 a83e b750 873e c35f aa3d 2ade 823e
00000220: 196e d2be a1d5 453d 8a2a 8fbe 6da0 873d
00000230: ca1b 303d b963 923e ec9a dbbd 0ce4 7dbd
00000240: e224 f33c d9db 03bd 5591 f9bd e08b a93d
00000250: 8d5a 35be a42b 1c3e fbcc b83c 6377 9fbe
00000260: 366e b23e 2a56 babe 229f bc3e ffbc 8b3d
00000270: decd a5be 305b 473e 1762 9f3d f168 dcbe
00000280: 8752 2f3e 9a54 e23d 764a b0bd 06f3 db3c
00000290: d7be 81be e77a 06be eb8f 1cbc 6c09 f3be
000002a0: 7808 6ebe 57c9 5ebc 4713 d5bd cebf 8c3e
000002b0: 7800 1b3d 990a 92bb 8ef0 9a3d f14e 22be
000002c0: 546c 80bc a429 323e 960f 39be 885f 0e3f
000002d0: 1599 d73d 3bc3 ff3d 34ad 833d 6ccd ac3b
000002e0: 97af 91be c5a6 a3be 2f2f e3be 05a1 63be
000002f0: 07be 6cbe 8d99 aebe 9e82 d03d ac2f 40bd
00000300: f216 13be 0dd7 e03e e435 6cbe bee5 65bc
00000310: a4c4 1abd d6e6 6ebe 2a17 adbe b554 dc3d
00000320: e067 9fbe fa8e 8d3e f2c4 abbd 74f1 1b3e
00000330: 0f78 87bd 875e 6dbe 10ba 9cbe 3d53 aebe
00000340: c135 0bbe d32e 0abe b7d6 99be 5ce0 973e
00000350: 7008 e6be d8f7 463e 4f81 79be 8f6a 5abe
00000360: 5460 b4be e9f1 96be 0803 e63d 6a9e 7f3e
00000370: ff74 a2bd b0e6 4dbd 775a 07be 1cbb bd3e
00000380: fa30 b7be dfc6 0ebe 18c3 a63c f091 03be
00000390: a619 8cbd a726 233e ee8d 533e b68b c93d
000003a0: b232 cb3c f6e0 bbbe 1a14 cb3d 6f80 eebd
000003b0: bd06 813d 75df ca3c 66a4 39be a19d a53e
000003c0: 5103 a9be f2a1 913e dc0c 48be afbd 7fbe
000003d0: 92dc 993e 4bb8 d33c 4cb4 edbd fc32 813d
000003e0: 36a7 8dbd b7fa 2ebe 70b5 cf3e d9fc 8bbe
000003f0: 4c35 df3d c0dc 073c e96a 893e 4834 cd3d

layer1.0.bias f4 [64]
2.2606555e-05 -0.000395595 9.595423e-05 0.00032076443 -3.3665136e-05 0.00012200062 -0.00026608695 0.0002494645
6.66e-05 -0.00014374332 -2.9574021e-05 -0.000113570124 -1.3277705e-05 -0.00013500745 -0.0002716015 0.0001154131
-2.8014729e-05 0.0001273038 -4.540798e-05 0.00024108561 4.3782737e-05 -0.00027414877 -0.00016886735 -7.705409e-05
-1.3157787e-05 -0.00015619706 0.001193906 -0.00013466566 -6.517261e-05 0.00018646303 -0.00017824073 -9.1584865e-05
0.00020577686 -0.0001610344 0.00012888463 0.00030405415 -9.695234e-06 0.00017743197 -2.417722e-05 1.6123098e-05
-2.2173852e-05 4.0737723e-05 -0.00016588802 0.00044097743 0.00026395303 -7.4876175e-06 -5.1835855e-06 -1.4307754e-05
0.00010780027 -8.272505e-06 -6.092315e-05 -0.00017522444 -0.0002413408 -5.8217105e-05 0.0003160796 -9.8816265e-05
-9.7617885e-05 -9.4855e-05 1.2696914e-05 -0.0001719503 0.00029502896 0.00026013496 -7.480238e-05 -9.914998e-05
00000000: 35a3 bd37 dd67 cfb9 093b c938 462c a839
00000010: aa33 0db8 96da ff38 9681 8bb9 8fca 8239
00000020: 9aab 8b38 ceb9 16b9 ba15 f8b7 7f2c eeb8
00000030: 4fc3 5eb7 c990 0db9 bc65 8eb9 f009 f238
00000040: 2c01 ebb7 db7c 0539 7374 3eb8 edcb 7c39
00000050: 5ba3 3738 a0bb 8fb9 fc11 31b9 1998 a1b8
00000060: 44c0 5cb7 d4c8 23b9 d67c 9c3a 0a35 0db9
00000070: 47ad 88b8 4a85 4339 22e6 3ab9 4011 c0b8
00000080: cec5 5739 58db 28b9 3425 0739 7569 9f39
00000090: b7a8 22b7 080d 3a39 2fd0 cab7 1740 8737
000000a0: fc01 bab7 ccdd 2a38 3af2 2db9 fd32 e739
000000b0: 2d63 8a39 253e fbb6 a9ee adb6 560b 70b7
000000c0: d412 e238 23ca 0ab7 bc87 7fb8 74bc 37b9
000000d0: 6d10 7db9 242e 74b8 7cb7 a539 943b cfb8
000000e0: 34b8 ccb8 e4ec c6b8 d504 5537 8f4d 34b9
000000f0: 1eae 9a39 b962 8839 39df 9cb8 bdee cfb8

layer1.1.weight f4 [64]
0.6282185 0.3712159 0.6480159 0.6521327 0.59090954 0.6480031 0.66986567 0.6643401
0.29104534 0.6409716 0.27881107 0.32708117 0.34215838 0.5724766 0.55559206 0.5943249
0.5174991 0.60723805 0.21516345 0.48699787 0.8144913 0.6795358 0.54515594 0.65002453
0.36357343 0.619981 0.898448 0.2910876 0.4534493 0.3370147 0.9558796 0.6315247
0.48020047 0.4050059 0.45974833 0.5637923 0.2580837 0.234644 0.21379952 0.32719663
0.4276431 0.6855547 0.27537516 0.56608015 0.5511525 0.26243833 0.39153907 0.75918394
0.3841256 0.47734806 0.35404503 0.6202362 0.4270738 0.5432957 0.47244918 0.21530361
0.5058764 0.541029 0.36044478 0.2845705 0.42197952 0.3943063 0.23414204 0.46095914
00000000: edd2 203f 0310 be3e 5fe4 253f 2bf2 263f
00000010: d945 173f 88e3 253f 517c 2b3f 3112 2a3f
00000020: e503 953e b716 243f 53c0 8e3e 2f77 a73e
00000030: 622f af3e d48d 123f 483b 0e3f ad25 183f
00000040: d27a 043f f473 1b3f cf53 5c3e c957 f93e
00000050: 8082 503f 0ff6 2d3f 578f 0b3f 0268 263f
00000060: 4c26 ba3e 13b7 1e3f b000 663f 6f09 953e
00000070: 822a e83e 318d ac3e 87b4 743f 9aab 213f
00000080: d6dc f53e ef5c cf3e 2264 eb3e b154 103f
00000090: 8c23 843e 8446 703e 43ee 5a3e 5186 a73e
000000a0: 09f4 da3e 8380 2f3f f9fd 8c3e a1ea 103f
000000b0: 5518 0d3f 515e 863e cf77 c83e e159 423f
000000c0: 1cac c43e f766 f43e 6445 b53e cdc7 1e3f
000000d0: 6ba9 da3e 6d15 0b3f dce4 f13e 8d78 5c3e
000000e0: 1e81 013f e080 0a3f 388c b83e 39b3 913e
000000f0: b30d d83e 84e2 c93e eec2 6f3e d602 ec3e

layer1.1.bias f4 [64]
-0.18022294 -0.070279494 -0.31723642 -0.17123938 -0.13857041 -0.35293505 -0.03185244 -0.29645342
-0.04252819 -0.120302305 -0.09545168 -0.050828293 -0.28347486 -0.13375837 -0.11364408 -0.17199026
-0.3676496 -0.083742745 -0.123290405 -0.15390101 -0.034145415 -0.1009006 -0.19148111 -0.10708456
-0.24773397 -0.28300348 -0.28636083 -0.040601462 -0.26311234 0.070130914 -0.11079697 -0.17710213
-0.137226 -0.048732422 -0.039915193 -0.009735301 0.084965795 0.01680725 -0.224567 -0.049849544
-0.07732076 -0.47134474 -0.06723831 -0.047623582 -0.37928712 -0.1683668 -0.19673246 -0.19240473
-0.03356138 -0.17202012 -0.12297135 -0.38097715 -0.084316835 -0.18930331 -0.056258485 -0.0174587
-0.3576689 -0.09872122 -0.21760254 -0.065699086 -0.13115145 -0.09226274 0.10869951 -0.30901632
00000000: 5d8c 38be b2ee 8fbd d06c a2be 6059 2fbe
00000010: 67e5 0dbe e7b3 b4be b477 02bd bec8 97be
00000020: 0a32 2ebd 0e61 f6bd 2c7c c3bd 5431 50bd
00000030: 9e23 91be f4f7 08be 3abe e8bd 371e 30be
00000040: 923c bcbe 5181 abbd ae7f fcbd 3a98 1dbe
00000050: 10dc 0bbd f9a4 cebd a013 44be 264f dbbd
00000060: f9ad 7dbe d5e5 90be e39d 92be b84d 26bd
00000070: a9b6 86be cca0 8f3d 86e9 e2bd 435a 35be
00000080: f984 0cbe a69b 47bd 1d7e 23bd d080 1fbc
00000090: 8c02 ae3d 5caf 893c e4f4 65be 092f 4cbd
000000a0: 595a 9ebd 1954 f1be 3db4 89bd f210 43bd
000000b0: ec31 c2be 5968 2cbe 3c74 49be bf05 45be
000000c0: a877 09bd 0b26 30be 67d8 fbbd 700f c3be
000000d0: 4eae acbd bad8 41be 4c6f 66bd 8c05 8fbc
000000e0: 6120 b7be 5a2e cabd 33d3 5ebe 3e8d 86bd
000000f0: 914c 06be 3ff4 bcbd d99d de3d 6337 9ebe

layer1.1.running_mean f4 [64]
-0.0006514112 -0.0003914116 0.00032153135 0.00040767685 0.00057016005 -8.549857e-05 -0.00083575275 0.00034701443
-1.6094344e-05 -0.00039954582 3.844314e-05 -3.9544913e-05 -0.00014309573 -0.0008680044 0.0004301789 -0.0001084439
-2.6558513e-05 3.490511e-05 -0.0005696422 0.0004941956 -0.0003665942 -0.0005409329 -0.0005434732 -0.0010303183
-0.0002757093 -8.693666e-05 0.00067607727 -0.00047935316 0.0001679855 0.0005702904 0.0004810507 -0.00036371822
0.00030429626 0.0002508191 0.00016217804 0.00039484026 0.00031785356 0.0004681233 -0.000179996 0.0004555458
-0.0006232116 -0.00018364358 -7.652643e-05 0.000225032 0.00022192801 0.00013539541 0.00012269188 0.00053182495
-0.000420477 0.00011010544 9.322405e-05 -8.0633945e-05 -0.0004981864 2.0952202e-05 0.0010254728 -0.00011367908
3.3932018e-05 0.00012086772 0.0001422611 -5.993244e-05 0.000197951 0.00038128812 -0.00082224753 -0.0003116533
00000000: 77c3 2aba 6036 cdb9 3593 a839 76bd d539
00000010: cb76 153a b24d b3b8 6b16 5bba 7def b539
00000020: 5702 87b7 227a d1b9 023e 2138 07dd 25b8
00000030: f80b 16b9 ca8a 63ba a289 e139 606c e3b8
00000040: f9c9 deb7 1467 1238 0a54 15ba e88c 013a
00000050: 7133 c0b9 64cd 0dba de77 0eba bf0b 87ba
00000060: 138d 90b9 c451 b6b8 c73a 313a b151 fbb9
00000070: 4425 3039 8a7f 153a 8835 fc39 6fb1 beb9
00000080: f489 9f39 5f80 8339 560e 2a39 9002 cf39
00000090: 95a5 a639 726e f539 4fbd 3cb9 53d6 ee39
000000a0: 065f 23ba 7390 40b9 d07c a0b8 91f6 6b39
000000b0: 59b5 6839 eef8 0d39 daa6 0039 2b6a 0b3a
000000c0: 7873 dcb9 68e8 e638 4881 c338 051a a9b8
000000d0: b998 02ba 83c2 af37 2869 863a fe66 eeb8
000000e0: 3a52 0e38 5d7a fd38 ec2b 1539 f85f 7bb8
000000f0: 1191 4f39 a0e7 c739 198c 57ba 6665 a3b9

layer1.1.running_var f4 [64]
0.25474215 0.038009122 0.35118496 0.2913724 0.3364571 0.27080286 0.2798377 0.16874178
0.30185056 0.30283442 0.3397786 0.4918072 0.65342546 0.36786935 0.3189158 0.16793178
0.17572576 0.7358304 0.41190925 0.20857622 0.48175585 0.11317831 0.1998873 0.25016943
0.80256796 0.16635813 0.019186964 0.16706926 0.55597144 0.2707888 0.44685218 0.15278633
0.13917738 0.32390162 0.7262012 0.37115633 0.33815557 0.11681521 0.43454835 0.4020656
0.29058617 0.22477962 0.1614229 0.21358879 0.05941993 0.49445876 0.36490446 0.20689104
0.37342608 0.45296738 0.42447698 0.13607459 0.16345611 0.3419304 0.18379569 0.5285459
0.18576293 0.16226402 0.42701718 0.15205857 0.27850533 0.23739949 0.4100698 0.24497047
00000000: 906d 823e 74af 1b3d 84ce b33e c32e 953e
00000010: 1b44 ac3e aca6 8a3e e346 8f3e a5ca 2c3e
00000020: 288c 9a3e 1d0d 9b3e 76f7 ad3e 27ce fb3e
00000030: e446 273f 5f59 bc3e ef48 a33e 4ff6 2b3e
00000040: 74f1 333e 625f 3c3f c5e5 d23e 0195 553e
00000050: b4a8 f63e 08ca e73d 42af 4c3e 3516 803e
00000060: 1875 4d3f c959 2a3e fb2d 9d3c 3414 2b3e
00000070: 2554 0e3f d4a4 8a3e cfc9 e43e 0574 1c3e
00000080: 8484 0e3e 6fd6 a53e 52e8 393f 3408 be3e
00000090: ba22 ad3e d03c ef3d 1f7d de3e 8bdb cd3e
000000a0: b6c7 943e a12c 663e 0b4c 253e 05b7 5a3e
000000b0: 5062 733d b329 fd3e c2d4 ba3e 3fdb 533e
000000c0: b431 bf3e 57eb e73e 0c55 d93e 2357 0b3e
000000d0: 0a61 273e 8011 af3e f034 3c3e c94e 073f
000000e0: a338 3e3e 8a28 263e ffa1 da3e 3eb5 1b3e
000000f0: 4098 8e3e da18 733e abf4 d13e 8ad9 7a3e

layer2.0.weight f4 [128, 64, 5]
0.07125764 0.106550545 0.09640664 0.009482123 0.017037535 0.06764858 0.07199783 0.029639054
0.11210048 -0.09378879 0.084186375 0.13690542 0.027759347 0.012017911 0.067445666 0.06481157
0.074682735 0.050140806 0.053294346 -0.028363353 0.036616035 0.04506577 0.0070533706 -0.091757275
0.0072825025 -0.018569872 0.06030265 0.10564425 0.042474758 0.015081405 0.08288681 0.14658925
0.08824344 0.12937103 0.13825577 -0.033957753 0.053139545 0.019753417 -0.042888653 -0.017401481
0.07324967 0.113753386 0.02079562 -0.058284465 -0.036112055 0.011647319 0.07597754 0.07066063
-0.020270292 -0.054283492 0.08548143 -0.04868949 -0.058705673 -0.07356368 -0.1440661 0.13354494
0.11531561 0.0387076 -0.004295071 -0.0600748 0.052562635 -0.03201363 -0.055026494 -0.069218084
-0.13634963 0.18194315 0.1036835 0.16334727 0.065424524 0.060869697 0.039352607 -0.01128501
0.06794568 0.04422296 0.0070080855 -0.09421093 -0.074381 0.03717659 0.020711998 -0.12628378
-0.120445415 0.035715006 0.017385928 -0.19606201 -0.05110084 -0.058823492 0.007546866 -0.108782016
-0.00590857 -0.004893149 0.15434004 0.1292717 0.06829325 0.09478508 0.0007769027 0.063818194
0.06435937 0.04647515 -0.14835533 -0.12609875 0.14958209 0.13881896 0.08675067 0.13039637
0.070123166 0.047802664 0.080628365 -0.030318134 -0.008968898 0.0009737723 0.033025682 -0.02163962
-0.009502474 -0.13798706 -0.22203536 -0.0034446525 -0.008988838 0.007495722 -0.089608915 -0.023518702
0.04500368 0.028841479 -0.005596665 0.01125644 -0.06805733 0.11347411 0.0011629089 -0.11064374
-0.07179803 -0.24069093 -0.059018403 -0.044466075 -0.11165741 -0.10678749 -0.16854708 0.21180177
0.17507224 0.03643843 0.103447415 -0.065762356 0.13982588 0.07340595 0.032254145 0.036427878
-0.18836817 0.062577486 0.024398392 0.07964382 -0.07650255 -0.034424074 0.116447955 0.02153967
0.093939535 0.02596828 0.10912648 0.023099445 0.07502071 -0.07818256 -0.0064521707 -0.04014006
0.02778463 -0.04707241 -0.004554125 -0.06011322 -0.05925464 0.0018413522 -0.043004178 0.06876113
-0.046851933 -0.092737086 0.05748654 -0.03690941 -0.04294619 -0.100786485 -0.15076423 0.09226918
0.1337601 0.118187025 0.07385944 0.08602228 0.07768421 0.18714915 0.046993412 0.0916701
0.0083719175 0.04901566 0.12211694 0.046996582 0.11737702 -0.023163289 0.07581199 -0.03091563
0.06495731 -0.004053242 -0.14495052 0.1421679 0.0644236 0.1296313 0.11611714 -0.1168808
-0.0131514855 0.19324334 0.123729736 0.120181926 0.111807674 0.03881818 0.029122854 0.04947087
0.07721763 -0.016605001 0.16038585 0.11510799 0.18421441 0.09518805 0.05365201 -0.044613205
-0.031879026 0.015094359 -0.1064855 -0.09500112 0.037921287 -0.0125856735 -0.08589975 -0.12378242
-0.09119917 0.104247816 0.03726767 -0.048060346 -0.06917196 -0.15705356 0.10960146 0.17758663
0.10144672 0.065629415 -0.09091313 0.10342275 0.14767852 -0.04278656 0.038173545 -0.05398703
0.043202076 0.0021950637 0.011665551 0.0691473 -0.11983363 0.04446395 0.044558 0.05369935
-0.048179034 -0.069554456 -0.0041641328 0.0625017 -0.039951093 0.0069591166 -0.11482477 0.041757535
00000000: 87ef 913d 2c37 da3d d870 c53d e85a 1b3c
00000010: 4d92 8b3c 578b 8a3d 9973 933d 9acd f23c
00000020: f094 e53d 5614 c0bd e869 ac3d ef30 0c3e
00000030: 9267 e33c c6e6 443c f420 8a3d eebb 843d
00000040: 43f3 983d 7260 4d3d 2c4b 5a3d 435a e8bc
00000050: b2fa 153d e396 383d f61f e73b 3deb bbbd
00000060: 0fa2 ee3b d81f 98bc e9ff 763d 035c d83d
00000070: 03fa 2d3d ff17 773c 8fc0 a93d 7e1b 163e
00000080: fab8 b43d d779 043e ec92 0d3e 4917 0bbd
00000090: daa8 593d ebd1 a13c 03ac 2fbd 8d8d 8ebc
000000a0: ec03 963d 89f7 e83d 935b aa3c b1bb 6ebd
000000b0: 3cea 13bd 66d4 3e3c 1d9a 9b3d 85b6 903d
000000c0: e20d a6bc 5e58 5ebd e310 af3d a16e 47bd
000000d0: 5c75 70bd 8ea8 96bd 1086 13be 01c0 083e
000000e0: 972a ec3d dc8b 1e3d abbd 8cbb fe10 76bd
000000f0: eb4b 573d b920 03bd 7663 61bd 36c2 8dbd
00000100: 3d9f 0bbe 4e4f 3a3e 0458 d43d 8244 273e
00000110: 4bfd 853d 8152 793d 3330 213d c3e4 38bc
00000120: 1b27 8b3d 2223 353d 15a4 e53b a9f1 c0bd
00000130: 1155 98bd 7b46 183d 35ac a93c 8950 01be
00000140: 16ac f6bd e649 123d ef6c 8e3c 7bc4 48be
00000150: 1d4f 51bd e7f0 70bd b34b f73b 1bc9 debd
00000160: ad9c c1bb b556 a0bb 510b 1e3e cd5f 043e
00000170: 55dd 8b3d ae1e c23d 0fa9 4b3a 1db3 823d
00000180: d8ce 833d ba5c 3e3d 76ea 17be 0820 01be
00000190: 0c2c 193e 8f26 0e3e 56aa b13d a086 053e
000001a0: bc9c 8f3d bacc 433d 7c20 a53d bc5d f8bc
000001b0: 49f2 12bc c144 7f3a f045 073d 9345 b1bc
000001c0: 44b0 1bbc 7b4c 0dbe 3d5d 63be aebf 61bb
000001d0: eb45 13bc ac9e f53b e184 b7bd 4baa c0bc
000001e0: c755 383d f744 ec3c 3b64 b7bb ee6c 383c
000001f0: a461 8bbd 1d65 e83d bf6c 983a 2f99 e2bd
00000200: d80a 93bd af77 76be 48bd 71bd 0f22 36bd
00000210: a4ac e4bd 66b3 dabd 9b97 2cbe 90e2 583e
00000220: 2346 333e 7740 153d 3ddc d33d 6aae 86bd
00000230: 842e 0f3e dc55 963d ec1c 043d 6635 153d
00000240: 96e3 40be a028 803d 23df c73c 4d1c a33d
00000250: 5ead 9cbd 4200 0dbd 447c ee3d f673 b03c
00000260: 5f63 c03d 6ebb d43c b47d df3d 0c3b bd3c
00000270: 75a4 993d 2e1e a0bd bb6c d3bb e769 24bd
00000280: 989c e33c 00cf 40bd c53a 95bb 4839 76bd
00000290: feb4 72bd 8759 f13a 2625 30bd a3d2 8c3d
000002a0: d0e7 3fbd f1ec bdbd 0277 6b3d 522e 17bd
000002b0: 58e8 2fbd 2569 cebd f061 1abe a0f7 bc3d
000002c0: 68f8 083e 0a0c f23d 9e43 973d 732c b03d
000002d0: e618 9f3d 07a4 3f3e 2a7c 403d 89bd bb3d
000002e0: 5e2a 093c a5c4 483d 7218 fa3d 7d7f 403d
000002f0: 5d63 f03d f0c0 bdbc 5143 9b3d c642 fdbc
00000300: 5708 853d 0fd1 84bb e96d 14be 7694 113e
00000310: 85f0 833d 11be 043e d3ce ed3d 335f efbd
00000320: 5479 57bc 95e1 453e 0466 fd3d f121 f63d
00000330: 6cfb e43d d0ff 1e3d 0d93 ee3c f8a1 4a3d
00000340: 4724 9e3d 3607 88bc 303c 243e bdbd eb3d
00000350: b4a2 3c3e f4f1 c23d 36c2 5b3d 56bc 36bd
00000360: 9593 02bd 554e 773c 1215 dabd f28f c2bd
00000370: 5a53 1b3d 2434 4ebc 35ec afbd a381 fdbd
00000380: a1c6 babd e17f d53d fca5 183d edda 44bd
00000390: 07aa 8dbd a6d2 20be bb76 e03d 45d9 353e
000003a0: 4cc3 cf3d b768 863d aa30 babd 4fcf d33d
000003b0: 0a39 173e f640 2fbd dd5b 1c3d 8121 5dbd
000003c0: a9f4 303d 0fdb 0f3b de20 3f3c 1a9d 8d3d
000003d0: 566b f5bd d51f 363d 7382 363d daf3 5b3d
000003e0: 6157 45bd 9172 8ebd 4773 88bb e400 803d
000003f0: c2a3 23bd 4d09 e43b 4029 ebbd f309 2b3d

layer2.0.bias f4 [128]
7.531267e-06 -5.412329e-05 -2.5461572e-05 3.28862e-05 -3.1163447e-05 8.857029e-06 1.3307157e-05 -9.788991e-06
5.8745085e-05 -2.1826683e-05 -1.8641866e-05 -0.00013316039 8.467563e-05 0.00016026026 5.2260104e-05 1.2208717e-05
3.1345392e-06 -5.6024396e-06 1.1459543e-05 1.3664721e-05 -6.0993665e-05 0.00021203472 -0.00019197376 6.009926e-06
-4.3267024e-05 -0.00017205719 -0.00022041283 -3.1985644e-05 6.341953e-05 9.0371315e-05 2.178528e-05 4.778803e-05
-5.6657616e-05 1.0651896e-06 1.197308e-05 -0.00012731028 7.374384e-05 -7.871856e-05 -4.9550777e-06 1.9581952e-05
1.5187487e-09 -0.0002714025 -5.4234246e-05 2.6061507e-05 4.114422e-05 2.1188622e-05 9.603433e-06 5.8291746e-05
-0.00015609796 -0.00030201816 -0.000110106266 -5.929883e-06 6.124106e-05 2.533264e-05 -6.3724445e-05 3.0272595e-05
-0.00011922174 -2.372465e-05 -8.055209e-05 2.0490856e-05 -8.412952e-06 4.6073365e-05 -1.213355e-21 3.5678463e-06
6.786657e-05 1.7917871e-05 7.753551e-05 3.5802695e-05 3.4038e-05 5.3999058e-05 0.00014371707 -0.00012507597
-4.170403e-05 -1.2337204e-22 -5.3201158e-05 -2.3334704e-05 1.6405309e-05 5.4728446e-07 -3.596489e-05 1.7391563e-05
-3.269475e-05 -9.2353795e-05 1.9373509e-05 2.3029903e-05 -0.00018047188 -4.185124e-05 4.9172755e-05 -4.3269256e-06
-8.237983e-05 -4.2871218e-07 0.00014630852 -8.560955e-05 0.0002944525 -2.778692e-05 -9.062281e-05 -2.0480944e-05
7.259698e-05 -3.1412694e-06 1.8447063e-05 7.716366e-05 -4.361183e-06 5.673424e-06 5.151156e-05 -1.1516402e-05
6.289895e-05 -0.00011054304 8.079905e-06 9.451529e-05 -9.349953e-05 5.3546582e-06 9.567365e-05 -7.638093e-06
1.5090011e-05 -9.429116e-06 -0.00012590826 1.3405114e-24 5.2291183e-05 0.00010367946 9.4037736e-05 4.317299e-05
2.7046202e-05 -0.00012840822 -1.34231395e-05 6.412801e-05 -2.938353e-05 1.9080857e-05 -6.737363e-05 1.160177e-05
00000000: 17b5 fc36 7102 63b8 4f96 d5b7 4aef 0938
00000010: 7fb5 02b8 a698 1437 ce41 5f37 653b 24b7
00000020: 0e65 7638 7218 b7b7 1a61 9cb7 f8a0 0bb9
00000030: e293 b138 890b 2839 dc31 5b38 0ad4 4c37
00000040: f95a 5236 97fc bbb6 5d42 4037 8841 6537
00000050: 73d3 7fb8 a355 5e39 904c 49b9 dfa8 c936
00000060: 9d79 35b8 406a 34b9 9e1e 67b9 5328 06b8
00000070: 1a00 8538 bb85 bd38 88bf b637 0270 4838
00000080: a7a3 6db8 a3f7 8e35 fddf 4837 987e 05b9
00000090: eca6 9a38 b515 a5b8 cb43 a6b6 ec43 a437
000000a0: 38bc d030 074b 8eb9 9479 63b8 a99e da37
000000b0: 4592 2c38 38be b137 6e1e 2137 497e 7438
000000c0: 3aae 23b9 3158 9eb9 dae8 e6b8 4ff9 c6b6
000000d0: 8b6e 8038 6e81 d437 cda3 85b8 e7f1 fd37
000000e0: af06 fab8 4c04 c7b7 13ee a8b8 c7e3 ab37
000000f0: 5b25 0db7 e63e 4138 665b b79c 226f 6f36
00000100: 9653 8e38 564e 9637 8f9a a238 da2a 1638
00000110: 06c4 0e38 0c7d 6238 c2b2 1639 d326 03b9
00000120: 5ceb 2eb8 cc25 159b 4f24 5fb8 e5be c3b7
00000130: 229e 8937 1ae9 1235 02d9 16b8 19e4 9137
00000140: b821 09b8 11ae c1b8 4b84 a237 5730 c137
00000150: 0d3d 3db9 6d89 2fb8 d83e 4e38 0230 91b6
00000160: 56c3 acb8 c129 e6b4 656a 1939 4789 b3b8
00000170: bf60 9a39 f517 e9b7 c00c beb8 7ece abb7
00000180: 353f 9838 99ce 52b6 c4be 9a37 edd2 a138
00000190: 4756 92b6 575e be36 1e0e 5838 9236 41b7
000001a0: 9ee8 8338 58d3 e7b8 ed8e 0737 8336 c638
000001b0: 2e15 c4b8 2aac b336 66a4 c838 5c25 00b7
000001c0: 1b2b 7d37 bf31 1eb7 3e06 04b9 216f cf17
000001d0: 3b53 5b38 7c6e d938 2036 c538 a514 3538
000001e0: 47e1 e237 52a5 06b9 f233 61b7 777c 8638
000001f0: a67c f6b7 d40f a037 f14a 8db8 39a5 4237

layer2.1.weight f4 [128]
0.37733537 0.7747601 0.69045746 0.8820851 0.79792863 0.29675967 0.49944416 0.0976235
0.5451412 0.2081972 0.45634338 0.6950881 0.6315079 0.65965265 0.62773156 0.472622
0.29874414 0.4996441 0.47183892 0.4828161 0.24272518 0.53897023 0.62116987 0.3107906
0.16750555 0.36616743 0.8069109 0.44012672 0.55053383 0.8399863 0.63209146 0.49243382
0.37027043 0.14245985 0.36694276 0.6868469 0.42163998 0.75357586 0.33978996 0.5273139
0.011859131 0.80959576 0.34868377 0.72972125 0.3586267 0.7172013 0.7776583 0.75044346
0.8669169 0.9123331 0.85854596 0.26058236 0.49248195 0.79688776 0.54003996 0.5190296
0.55179226 0.5192145 0.46205294 -0.18873668 0.34330964 0.42412195 -0.0018689699 0.6617568
0.7825519 0.5764339 0.73330164 0.41208607 0.6089897 0.5474516 1.1118546 0.4008348
0.9411948 0.00024214904 0.66170573 0.17074892 0.48720792 0.09747708 0.6736831 0.2804096
0.16138218 0.34900784 0.21320575 0.37934467 0.7702941 0.1957526 0.6544272 0.10348779
0.52413136 0.12771171 1.064788 0.621565 0.7788189 0.5818046 0.68957365 0.23357704
0.81714725 0.7977756 0.6844313 0.57319784 0.41879585 0.27064517 0.63243175 0.86623704
0.57393736 0.51166016 0.27908364 0.38900706 0.27671197 0.18334849 0.35302144 0.25216284
0.17587718 0.8056528 0.34427822 2.097247e-05 0.46126166 0.8969542 0.49937266 0.40455452
0.52926904 0.5187869 0.5130387 0.7216101 0.55701125 0.8373891 0.32131076 0.37224922
00000000: 1a32 c13e ae56 463f d2c1 303f 54d0 613f
00000010: 0d45 4c3f e2f0 973e 25b7 ff3e d4ee c73d
00000020: 608e 0b3f a631 553e d7a5 e93e 4bf1 313f
00000030: 80aa 213f ffde 283f 04b3 203f 83fb f13e
00000040: fef4 983e 5ad1 ff3e df94 f13e ac33 f73e
00000050: f38c 783e f4f9 093f fd04 1f3f f21f 9f3e
00000060: 9386 2b3e 4c7a bb3e b691 4e3f 4a58 e13e
00000070: c9ef 0c3f 5809 573f bfd0 213f 4920 fc3e
00000080: 1694 bd3e ffe0 113e ecdf bb3e 33d5 2f3f
00000090: 32e1 d73e 59ea 403f f3f8 ad3e 0bfe 063f
000000a0: cd4c 423c ab41 4f3f ae86 b23e 03cf 3a3f
000000b0: eb9d b73e 819a 373f 9d14 473f 101d 403f
000000c0: 44ee 5d3f a98e 693f abc9 5b3f 0d6b 853e
000000d0: 9826 fc3e d600 4c3f 0f40 0a3f 20df 043f
000000e0: 4242 0d3f 3eeb 043f 3492 ec3e 3044 41be
000000f0: 48c6 af3e 8326 d93e 39f8 f4ba e568 293f
00000100: 5255 483f 2c91 133f a8b9 3b3f f2fc d23e
00000110: c0e6 1b3f ca25 0c3f 4051 8e3f 383a cd3e
00000120: 24f2 703f 63e9 7d39 8c65 293f ced8 2e3e
00000130: 5173 f93e 10a2 c73d 7f76 2c3f d991 8f3e
00000140: 5f41 253e 28b1 b23e 9c52 5a3e 7739 c23e
00000150: fe31 453f 5f73 483e 8a88 273f 68f1 d33d
00000160: 792d 063f dcc6 023e f94a 883f e21e 1f3f
00000170: ad60 473f 25f1 143f e687 303f d22e 6f3e
00000180: 9030 513f 063b 4c3f e436 2f3f 18bd 123f
00000190: 696c d63e 0192 8a3e 0ce7 213f b6c1 5d3f
000001a0: 8fed 123f 29fc 023f 0de4 8e3e ef2b c73e
000001b0: 31ad 8d3e b5bf 3b3e 3abf b43e 7d1b 813e
000001c0: 2619 343e 433f 4e3f 3c45 b03e 09ee af37
000001d0: 7d2a ec3e ca9e 653f c6ad ff3e c521 cf3e
000001e0: 2d7e 073f 38cf 043f 8156 033f 71bb 383f
000001f0: 4a98 0e3f 225f 563f d882 a43e 7397 be3e

layer2.1.bias f4 [128]
-0.1483176 -0.19733633 -0.16931805 -0.1393409 -0.1300281 -0.12760487 -0.13864721 -0.059111666
-0.18458733 -0.10111732 -0.10029569 -0.13124906 -0.15227339 -0.20842527 -0.13433124 -0.1549452
-0.17583518 -0.13605201 -0.14556283 -0.16908005 -0.063414566 -0.097180486 -0.16266124 -0.11449105
-0.07215426 -0.097648844 -0.13930982 -0.11815656 -0.14851809 -0.16300243 -0.10170137 -0.1082038
-0.09757327 -0.051001858 -0.09976733 -0.16822569 -0.15704195 -0.10855478 -0.10786363 -0.2464484
-0.12414079 -0.14678605 -0.12481837 -0.20972379 -0.083211794 -0.26199234 -0.18331192 -0.16486
-0.16026844 -0.15214297 -0.12668373 -0.11348369 -0.15477675 -0.14324076 -0.10573864 -0.14765202
-0.079107165 -0.20881194 -0.11282642 -0.16715115 -0.24991764 -0.07026036 -0.0068582767 -0.05241391
-0.13284357 -0.18097407 -0.138737 -0.16262671 -0.15261877 -0.14294876 -0.03406431 -0.13329385
-0.19384985 -0.023002908 -0.17030501 -0.08478752 -0.12651846 -0.098407626 -0.1252675 -0.12131614
-0.08441089 -0.06405404 -0.10238069 -0.10566751 -0.13837864 -0.07600428 -0.14141706 -0.089131236
-0.16075759 -0.112378836 -0.1867165 -0.1271949 -0.13815385 -0.1298705 -0.30457866 -0.10007634
-0.22234812 -0.08250897 -0.336923 -0.12374783 -0.11653791 -0.12359502 -0.12270438 -0.13671093
-0.1155206 -0.105868354 -0.13887198 -0.17487416 -0.04706828 -0.10209591 -0.16359013 -0.1587373
-0.03743179 -0.09620795 -0.11344708 -0.01931315 -0.15015641 -0.19202997 -0.16244873 -0.17635502
-0.15913256 -0.112733215 -0.15515713 -0.18631017 -0.15861939 -0.21338749 -0.0763965 -0.029605877
00000000: 92e0 17be 8912 4abe b661 2dbe 62af 0ebe
00000010: 1626 05be daaa 02be 89f9 0dbe 131f 72bd
00000020: 7604 3dbe 9916 cfbd d467 cdbd 2766 06be
00000030: 8eed 1bbe 6f6d 55be 218e 09be f4a9 1ebe
00000040: 230e 34be 3851 0bbe 6c0e 15be 5223 2dbe
00000050: 7fdf 81bd 9006 c7bd ab90 26be 497a eabd
00000060: 9dc5 93bd 1efc c7bd 3ca7 0ebe 11fc f1bd
00000070: 2015 18be 1cea 26be cf48 d0bd f499 ddbd
00000080: 7fd4 c7bd 53e7 50bd d052 ccbd 5b43 2cbe
00000090: 9bcf 20be f851 debd 9be7 dcbd f85c 7cbe
000000a0: 873d febd 154f 16be c6a0 ffbd d5c1 56be
000000b0: f26a aabd dc23 86be 1fb6 3bbe 0fd1 28be
000000c0: 691d 24be 5ecb 1bbe 61b9 01be 236a e8bd
000000d0: cc7d 1ebe b5ad 12be 808d d8bd 1732 17be
000000e0: f002 a2bd ccd2 55be 8a11 e7bd ac29 2bbe
000000f0: 69ea 7fbe aae4 8fbd 65bb e0bb f8af 56bd
00000100: 2508 08be 4451 39be 1211 0ebe 9e87 26be
00000110: 1848 1cbe 2961 12be 0587 0bbd 2f7e 08be
00000120: 9380 46be 9870 bcbc 7064 2ebe 14a5 adbd
00000130: 0e8e 01be f089 c9bd 2046 00be 9974 f8bd
00000140: 9edf acbd c42e 83bd f8ac d1bd 3568 d8bd
00000150: 21b3 0dbe 22a8 9bbd a2cf 10be 708a b6bd
00000160: a39d 24be e026 e6bd 9c32 3fbe 613f 02be
00000170: 3478 0dbe c6fc 04be bcf1 9bbe d3f4 ccbd
00000180: 3aaf 63be 76fa a8bd 2c81 acbe 816f fdbd
00000190: 6eab eebd 631f fdbd 6f4c fbbd f3fd 0bbe
000001a0: 1096 ecbd 82d1 d8bd 7534 0ebe 3612 33be
000001b0: abca 40bd a917 d1bd 2c84 27be 088c 22be
000001c0: 1452 19bd ac08 c5bd f156 e8bd 9c36 9ebc
000001d0: 9ac2 19be 81a3 44be f658 26be 6996 34be
000001e0: a5f3 22be ace0 e6bd 83e1 1ebe 18c8 3ebe
000001f0: 1f6d 22be 4082 5abe c575 9cbd 0688 f2bc

layer2.1.running_mean f4 [128]
1.3198445 0.022090562 -1.0193522 1.7998184 0.09503909 -0.86936593 -2.094013 -1.1167182
0.3567925 -0.13645531 -2.535906 -0.42448068 -1.4222054 -1.1072613 -1.7514222 1.0554713
-1.1102427 0.8140661 -2.6285143 -1.8195008 0.29951707 0.42358446 -0.7570283 -0.25447798
-0.75037783 -0.21456853 0.14615187 -2.1026487 -2.0254204 -1.1169413 -1.5835584 -1.8613315
-0.028495917 -0.8243723 1.7473232 -0.08754465 -2.1221447 -0.14016984 1.654031 -2.1474423
0.19277215 -0.043002136 -1.5767386 -0.72373265 0.45371956 -0.42382213 0.3387064 -1.1767943
-0.00023440045 0.09352632 -0.18661262 1.4558183 -2.1447442 0.20606956 -0.27402684 1.0800182
0.20322645 -0.800687 -2.0303214 0.20961055 -0.48278123 0.7677126 2.4040193e-16 3.6909244
-1.1811231 -1.6723914 -0.85643476 -1.7463628 -0.21933259 0.70604235 0.3990246 -0.34397185
0.51215416 -6.6001315e-12 -0.770448 -0.49631423 -0.1613937 -0.48057437 -0.17431146 -0.9923559
-0.80961925 -0.2136155 -0.15971006 -1.5789629 -0.2389989 -0.022523994 0.9465386 -0.5708619
0.9122437 0.45499563 0.043333594 -0.01949997 -0.03711225 -0.2446367 -1.2187281 -0.7577269
-0.11864917 3.4410946 -1.3739753 -0.08293721 0.6787132 -1.8585042 -2.2175822 1.4086932
-2.7951372 0.08781276 -1.0122671 -1.2800546 0.20066404 -0.819651 -1.1909621 -1.3984627
0.83108705 -1.674112 -0.1616321 -2.7627703e-12 0.0274917 -1.0266781 -1.4099603 -0.6216188
-1.890988 -0.018330533 -1.2722669 -1.6269312 -0.76801276 0.05759199 0.20135434 0.7116971
00000000: aaf0 a83f 44f7 b43c 227a 82bf 7360 e63f
00000010: dba3 c23d c48e 5ebf 4f04 06c0 9ff0 8ebf
00000020: 82ad b63e f1ba 0bbe 494c 22c0 8855 d9be
00000030: d40a b6bf bdba 8dbf 9a2e e0bf af19 873f
00000040: 6f1c 8ebf a366 503f 9439 28c0 67e5 e8bf
00000050: 4d5a 993e 10e0 d83e 9bcc 41bf f04a 82be
00000060: c318 40bf dab7 5bbe d6a8 153e cc91 06c0
00000070: 7da0 01c0 eff7 8ebf 0bb2 cabf 1c40 eebf
00000080: 4570 e9bc 100a 53bf 49a8 df3f 9c4a b3bd
00000090: 38d1 07c0 af88 0fbe 4ab7 d33f b26f 09c0
000000a0: 1066 453e 0223 30bd 92d2 c9bf 8b46 39bf
000000b0: ee4d e83e 37ff d8be ed6a ad3e 32a1 96bf
000000c0: 64c9 75b9 ba8a bf3d 6117 3fbe 4158 ba3f
000000d0: 7d43 09c0 e603 533e 3f4d 8cbe 093e 8a3f
000000e0: 981a 503e d3f9 4cbf c9f0 01c0 26a4 563e
000000f0: 1a2f f7be d088 443f 1095 8a25 1b38 6c40
00000100: 0b2f 97bf ec10 d6bf 4f3f 5bbf d188 dfbf
00000110: b998 60be 31bf 343f f44c cc3e 141d b0be
00000120: 891c 033f b338 e8ac 153c 45bf e61c febe
00000130: 6444 25be d80d f6be b47e 32be 090b 7ebf
00000140: 3543 4fbf 06be 5abe 098b 23be 751b cabf
00000150: 21bc 74be 3d84 b8bc 5b50 723f 0124 12bf
00000160: ce88 693f 30f5 e83e 917e 313d 67be 9fbc
00000170: 0403 18bd 0b82 7abe 48ff 9bbf 64fa 41bf
00000180: 56fe f2bd e53a 5c40 6cde afbf fcda a9bd
00000190: 26c0 2d3f 77e3 edbf deec 0dc0 0f50 b43f
000001a0: 87e3 32c0 2dd7 b33d f891 81bf d4d8 a3bf
000001b0: e07a 4d3e a6d4 51bf 7271 98bf d300 b3bf
000001c0: 1fc2 543f 4d49 d6bf e382 25be a569 42ac
000001d0: 4636 e13c 306a 83bf 9479 b4bf 6922 1fbf
000001e0: e50b f2bf ea29 96bc a4d9 a2bf 483f d0bf
000001f0: 7c9c 44bf 94e5 6b3d d52f 4e3e c831 363f

layer2.1.running_var f4 [128]
2.816592 1.9836316 6.0479174 3.615764 3.3571527 2.082613 6.8484306 2.305936
5.6457806 1.8483673 5.451538 4.414122 5.2013063 4.0352 6.7754626 1.9374508
3.0016096 2.4675596 6.0767903 5.373839 2.1547208 3.3124273 4.1265254 1.4026768
1.8758098 2.5203366 2.0843189 4.8068395 6.452081 3.7734127 5.3629622 5.5818243
2.2837174 1.5108929 3.4872189 2.7478998 5.32614 3.2499392 2.8759563 5.7193074
0.6886096 2.3009422 3.9462848 3.7238636 4.5331483 2.4813826 6.707825 4.3453226
2.6784952 2.0687692 3.4227712 2.6279356 6.094789 2.6061347 3.524049 2.3887677
2.3486805 3.046101 4.431962 1.7040783 1.8762547 4.976956 1.1991193e-29 8.831633
5.1147695 5.4722776 2.8139675 5.0783234 4.1264124 6.165055 3.3637147 2.4238973
2.4947178 8.2107804e-22 3.1757076 1.8018626 2.33242 0.74406576 1.5887464 4.6165767
1.7945021 3.477139 2.1848633 4.480089 2.8352392 1.3733898 6.462019 1.1783813
2.3377085 1.6333435 5.7555633 2.2510483 3.8765619 3.7695086 2.8660536 2.1294608
4.4226255 8.040507 2.4577506 3.452992 2.114186 4.7402067 3.9676807 3.0374265
6.519503 2.7257712 3.3340538 2.7840009 1.8627924 1.888177 2.9197063 2.559674
3.2620356 4.5735135 1.8755411 1.3802592e-22 2.2192168 2.8316367 2.5594869 4.605883
7.2538466 2.77013 5.119694 3.9194994 4.5350947 5.6822557 2.0845861 2.7519777
00000000: 0b43 3440 a4e7 fd3f 8a88 c140 ad68 6740
00000010: 97db 5640 8849 0540 5826 db40 7594 1340
00000020: 3caa b440 4d97 ec3f 0073 ae40 7d40 8d40
00000030: 1a71 a640 5c20 8140 97d0 d840 63fe f73f
00000040: 5f1a 4040 7fec 1d40 1175 c240 7df6 ab40
00000050: f2e6 0940 cffe 5340 7f0c 8440 ea8a b33f
00000060: 891a f03f 324d 2140 7b65 0540 a1d1 9940
00000070: 7377 ce40 987f 7140 639d ab40 4e9e b240
00000080: 6d28 1240 f064 c13f 982e 5f40 97dd 2f40
00000090: bd6f aa40 01ff 4f40 ab0f 3840 9104 b740
000000a0: b848 303f a342 1340 ee8f 7c40 c853 6e40
000000b0: 8d0f 9140 f9ce 1e40 81a6 d640 e20c 8b40
000000c0: 776c 2b40 b766 0440 af0e 5b40 1930 2840
000000d0: 8308 c340 e9ca 2640 058a 6140 92e1 1840
000000e0: c850 1640 52f3 4240 a2d2 8d40 3d1f da3f
000000f0: 1d29 f03f 3943 9f40 d535 730f 5e4e 0d41
00000100: 31ac a340 e61c af40 0b18 3440 a081 a240
00000110: 920b 8440 2148 c540 1a47 5740 2221 1b40
00000120: 75a9 1f40 d627 781c cb3e 4b40 6fa3 e63f
00000130: 5f46 1540 187b 3e3f 0b5c cb3f ffba 9340
00000140: 3fb2 e53f 7289 5e40 cdd4 0b40 e45c 8f40
00000150: 8f74 3540 3dcb af3f dcc8 ce40 33d5 963f
00000160: 049d 1540 6611 d13f 932d b840 2d11 1040
00000170: 9719 7840 a13f 7140 6c6d 3740 1649 0840
00000180: 2686 8d40 eba5 0041 c94b 1d40 d2fd 5c40
00000190: d34e 0740 c6af 9740 7bee 7d40 3265 4240
000001a0: c59f d040 0973 2e40 2361 5540 122d 3240
000001b0: fb6f ee3f c9af f13f 78dc 3a40 b3d1 2340
000001c0: 31c5 5040 395a 9240 bb11 f03f f4dc 261b
000001d0: a607 0e40 8939 3540 a2ce 2340 6563 9340
000001e0: 831f e840 cf49 3140 89d4 a340 14d9 7a40
000001f0: 7f1f 9140 0ad5 b540 dc69 0540 6720 3040

linear1.weight f4 [4, 16000]
0.047368303 -0.042114478 -0.016817339 0.097251914 0.04308852 -0.009235421 0.033858385 0.0250038
0.07618172 0.032740913 0.02987892 0.002263377 0.017344885 0.045406956 0.1288341 0.053437173
0.0016502774 0.07475331 0.043204073 0.056132153 -0.0795589 0.025554635 0.004911444 0.012046038
0.042840477 0.036170572 -0.011948526 0.02865785 -0.053969618 -0.005653224 -0.005680096 -0.043966517
0.02043582 0.0486818 -0.009193286 0.013466407 -0.025779668 -0.018847736 0.033781096 -0.039403412
-0.079041585 -0.06807583 0.0077274474 0.062370908 0.07000156 0.047015075 -0.013238272 0.019043256
0.014750984 -0.038031314 -0.025679016 -0.04120849 0.056201745 0.066129975 0.015078175 -0.020472378
0.033988215 -0.019651031 0.015145574 -0.009682022 0.031090336 0.06351906 -0.007611568 -0.050794307
0.021530844 0.03868229 0.014086344 0.025451116 0.039295454 0.03233355 0.023621013 0.04841633
0.032545995 0.016546337 0.05922172 0.0134790335 0.0056375745 0.032198302 0.021685366 -0.09098565
0.03665564 -0.05148062 0.042812776 -0.029018989 -0.026601635 0.0035762999 -0.04545247 -0.026560707
0.0066020447 0.014363208 0.026235506 -0.05657664 -0.057175413 0.026023317 -0.037791256 -0.007179564
0.02658881 -0.054564923 0.007966119 0.028401254 -0.005822843 0.026200064 -0.06875574 0.004528457
0.0024833318 0.0012258836 -0.004089762 0.021660026 0.04986819 0.0122743435 0.007303448 0.06191118
-0.07891595 0.017399322 0.017572712 -0.10584684 -0.027838511 -0.039591566 0.029603986 -0.02266052
-0.008470913 0.008722844 -0.044871088 -0.06818558 -0.07664477 0.0200428 -0.02982812 0.032386832
0.0060889996 -0.032477416 0.0034779282 0.014296329 -0.037075315 -0.045594424 -0.038435966 -0.011775139
0.015013798 -0.07874308 0.020936321 0.009868592 -0.09567855 0.011632707 0.01739534 0.020751335
-0.020267017 -0.005503301 -0.056263134 -0.08362098 -0.0010310599 -0.035051536 -0.032913752 -0.028168872
-0.06359436 -0.0777155 -0.019355873 0.062432718 -0.10444957 -0.0018290075 -0.014216386 -0.056287576
-0.049431015 -0.0076360484 0.07225349 0.003391524 -0.046457633 -0.031766027 -0.04481575 -0.07625175
-0.018190663 -0.022470478 -0.065759934 -0.042487916 0.039775196 -0.021321744 -0.057162523 0.07234085
0.021631172 0.05504061 -0.09860558 0.0010421238 -0.028333772 -0.02088174 -0.086215444 -0.055925634
0.02757418 0.0015510453 0.033726417 0.0470644 -0.018841907 -0.02334993 -0.09761224 -0.008505051
-0.09666984 -0.050512232 0.018320289 -0.015472127 -0.0913076 -0.0073691225 -0.0015664288 -0.024870014
-0.03311787 -0.015865246 -0.007810132 -0.019972442 -0.056323398 -0.055476032 -0.038072385 -0.03637164
-0.028819073 0.03191482 -0.13456702 -0.039359637 -0.018113336 -0.02324713 -0.032006767 -0.063084
-0.07199234 0.0026979027 -0.019859381 0.01927163 -0.053293154 -0.08061456 0.0050683394 -0.023614302
-0.029405467 -0.016583035 -0.06164701 -0.043231502 -0.046171058 -0.010602176 -0.05766003 0.052115638
-0.011994834 -0.017102845 -0.029119534 0.0116608385 0.0072593484 -0.10026025 -0.048944063 -0.06533536
0.009138389 0.026147606 -0.10079245 0.038327184 0.04972302 -0.04636246 -0.024725275 -0.057994694
-0.092094 -0.079755545 -0.0012189072 0.02570917 0.11833246 0.07734089 0.08658633 -0.014420299
00000000: 4405 423d 3b80 2cbd 84c4 89bc 032c c73d
00000010: 977d 303d 2a50 17bc 17af 0a3d c5d4 cc3c
00000020: 2905 9c3d 561b 063d a3c4 f43c 2a55 143b
00000030: dc16 8e3c a5fc 393d 16ed 033e f0e0 5a3d
00000040: 1f4e d83a 4318 993d c1f6 303d d4ea 653d
00000050: c7ef a2bd f457 d13c 2ef0 a03b bf5c 453c
00000060: 7f79 2f3d 9827 143d c0c3 43bc dec3 ea3c
00000070: 3f0f 5dbd ae3e b9bb 1920 babb 3c16 34bd
00000080: 0569 a73c 9166 473d 709f 16bc 34a2 5c3c
00000090: e22f d3bc 9166 9abc 0c5e 0a3d 7965 21bd
000000a0: 8ee0 a1bd 576b 8bbd 8736 fd3b a378 7f3d
000000b0: fa5c 8f3d e192 403d 56e5 58bc 9a00 9c3c
000000c0: 1cae 713c b9c6 1bbd cd5c d2bc 3cca 28bd
000000d0: cd33 663d 276f 873d 730a 773c b0b5 a7bc
000000e0: 3a37 0b3d 33fb a0bc 2425 783c 58a1 1ebc
000000f0: 29b1 fe3c 4816 823d 766a f9bb b10d 50bd
00000100: 7461 b03c 5271 1e3d 69ca 663c dc7e d03c
00000110: 45f4 203d 2f70 043d db80 c13c 3450 463d
00000120: f34e 053d 2f8c 873c 7992 723d 2ad7 5c3c
00000130: 67bb b83b 5ee2 033d 82a5 b13c af56 babd
00000140: 3924 163d 58dd 52bd 735c 2f3d 3bb9 edbc
00000150: aceb d9bc 5b60 6a3b 5f2c 3abd d795 d9bc
00000160: f755 d83b a953 6b3c d8eb d63c e8bc 67bd
00000170: c430 6abd da2e d53c 01cb 1abd 8c42 ebbb
00000180: c7d0 d93c 787f 5fbd 5384 023c bfa9 e83c
00000190: 8ccd bebb 84a1 d63c cfcf 8cbd 7363 943b
000001a0: 65bf 223b d4ad a03a 6903 86bb 5e70 b13c
000001b0: 9642 4c3d 541a 493c c351 ef3b 9496 7d3d
000001c0: b09e a1bd 0689 8e3c a6f4 8f3c 3ac6 d8bd
000001d0: 970d e4bc c42a 22bd 0f84 f23c 8ea2 b9bc
000001e0: 96c9 0abc 42ea 0e3c bfca 37bd e2a4 8bbd
000001f0: eff7 9cbd cc30 a43c 1a5a f4bc 0ea8 043d
00000200: 3b86 c73b 0a07 05bd f4ed 633b 263b 6a3c
00000210: 49dc 17bd 38c1 3abd 086f 1dbd 83ec 40bc
00000220: 6ffc 753c 0d44 a1bd a682 ab3c e0af 213c
00000230: 1ef3 c3bd 1c97 3e3c ac80 8e3c b4fe a93c
00000240: 0407 a6bc 0955 b4bb 2c74 66bd 7a41 abbd
00000250: a124 87ba 3392 0fbd 92d0 06bd 68c2 e6bc
00000260: c33d 82bd 4e29 9fbd 3590 9ebc 73b9 7f3d
00000270: a8e9 d5bd 4fbb efba d8eb 68bc cd8d 66bd
00000280: 2d78 4abd d137 fabb a3f9 933d 5544 5e3b
00000290: 5c4a 3ebd 181d 02bd b890 37bd e129 9cbd
000002a0: 9604 95bc 0214 b8bc 25ad 86bd cf07 2ebd
000002b0: 51eb 223d f0aa aebc 4023 6abd 7127 943d
000002c0: db33 b13c 4372 613d b9f1 c9bd df97 883a
000002d0: 3a1c e8bc 2f10 abbc b991 b0bd 4712 65bd
000002e0: 3fe3 e13c 724c cb3a b624 0a3d 9ac6 403d
000002f0: 585a 9abc 5a48 bfbc ede8 c7bd c558 0bbc
00000300: d6fa c5bd eae5 4ebd 6e14 963c ce7e 7dbc
00000310: 7bff babd ae78 f1bb a150 cdba 33bc cbbc
00000320: 9ba6 07bd d5f7 81bc 23ec ffbb 3f9d a3bc
00000330: 5db3 66bd d63a 63bd caf1 1bbd 6efa 14bd
00000340: fa15 ecbc 1db9 023d f0cb 09be 9237 21bd
00000350: 6b62 94bc c470 bebc 8719 03bd 2f32 81bd
00000360: b870 93bd 4ccf 303b 24b0 a2bc 8adf 9d3c
00000370: ec49 5abd 3f19 a5bd 5014 a63b c872 c1bc
00000380: bce3 f0bc 25d9 87bc 9381 7cbd 8413 31bd
00000390: dd1d 3dbd c0b4 2dbc ec2c 6cbd 3577 553d
000003a0: fb85 44bc 441b 8cbc 178c eebc 1a0d 3f3c
000003b0: d4df ed3b 3f55 cdbd 9279 48bd 8cce 85bd
000003c0: 2eb9 153c 8133 d63c 466c cebd f7fc 1c3d
000003d0: 5eaa 4b3d 90e6 3dbd a98c cabc d88b 6dbd
000003e0: c79b bcbd e056 a3bd bdc3 9fba 0a9c d23c
000003f0: 4a58 f23d e764 9e3d 2c54 b13d 1e43 6cbc

linear1.bias f4 [4]
-0.069283284 0.017040292 0.0057953424 -0.00043456384
00000000: 65e4 8dbd 1598 8b3c dbe6 bd3b 2cd6 e3b9
